…
Layer-level Per-Class Recall:  [0.6239947264337509, 0.8066298342541437, 0.6243386243386243, 0.10084033613445378, 0.8791208791208791, 0.9882352941176471, 0.8128654970760234, 0.38011695906432746]
Layer-level Per-Class F1 Score:  [0.7497227942341201, 0.863905325443787, 0.5209713024282561, 0.12598425196850396, 0.7289293849658315, 0.9673704414587332, 0.866043613707165, 0.08107265357031493]
******************************************************************************************************************************
Model: "sequential"
_________________________________________________________________
 Layer (type)                Output Shape              Param #   
=================================================================
 bidirectional (Bidirection  (None, 9799, 512)         414720    
 al)                                                             
                                                                 
 dropout (Dropout)           (None, 9799, 512)         0         
                                                                 
 bidirectional_1 (Bidirecti  (None, 9799, 256)         493056    
 onal)                                                           
                                                                 
 dropout_1 (Dropout)         (None, 9799, 256)         0         
                                                                 
 bidirectional_2 (Bidirecti  (None, 9799, 256)         296448    
 onal)                                                           
                                                                 
 dropout_2 (Dropout)         (None, 9799, 256)         0         
                                                                 
 bidirectional_3 (Bidirecti  (None, 9799, 256)         296448    
 onal)                                                           
                                                                 
 dropout_3 (Dropout)         (None, 9799, 256)         0         
                                                                 
 attention_layer (Attention  (None, 256)               65536     
 Layer)                                                          
                                                                 
 dense (Dense)               (None, 8)                 2056      
                                                                 
=================================================================
Total params: 1568264 (5.98 MB)
Trainable params: 1568264 (5.98 MB)
Non-trainable params: 0 (0.00 Byte)