…
Layer-level Per-Class Recall:  [0.6615363661127758, 0.9615384615384616, 0.996078431372549, 0.9005847953216374, 0.3391812865497076]
Layer-level Per-Class F1 Score:  [0.7822515703011758, 0.7608695652173912, 0.97131931166348, 0.7403846153846154, 0.08384531984098301]
******************************************************************************************************************************
Model: "sequential"
_________________________________________________________________
 Layer (type)                Output Shape              Param #   
=================================================================
 bidirectional (Bidirection  (None, 9799, 512)         550912    
 al)                                                             
                                                                 
 dropout (Dropout)           (None, 9799, 512)         0         
                                                                 
 bidirectional_1 (Bidirecti  (None, 9799, 256)         656384    
 onal)                                                           
                                                                 
 dropout_1 (Dropout)         (None, 9799, 256)         0         
                                                                 
 bidirectional_2 (Bidirecti  (None, 9799, 256)         394240    
 onal)                                                           
                                                                 
 dropout_2 (Dropout)         (None, 9799, 256)         0         
                                                                 
 bidirectional_3 (Bidirecti  (None, 9799, 256)         394240    
 onal)                                                           
                                                                 
 dropout_3 (Dropout)         (None, 9799, 256)         0         
                                                                 
 attention_layer (Attention  (None, 256)               65536     
 Layer)                                                          
                                                                 
 dense (Dense)               (None, 5)                 1285      
                                                                 
=================================================================
Total params: 2062597 (7.87 MB)
Trainable params: 2062597 (7.87 MB)
Non-trainable params: 0 (0.00 Byte)