…
Layer-level Per-Class Recall:  [0.6615363661127758, 0.3901098901098901, 0.34901960784313724, 0.3157894736842105, 0.3742690058479532]
Layer-level Per-Class F1 Score:  [0.7705854355069015, 0.39444444444444443, 0.5, 0.33855799373040757, 0.08698606863744479]
******************************************************************************************************************************
Model: "sequential"
_________________________________________________________________
 Layer (type)                Output Shape              Param #   
=================================================================
 bidirectional (Bidirection  (None, 9799, 512)         550912    
 al)                                                             
                                                                 
 dropout (Dropout)           (None, 9799, 512)         0         
                                                                 
 bidirectional_1 (Bidirecti  (None, 9799, 256)         656384    
 onal)                                                           
                                                                 
 dropout_1 (Dropout)         (None, 9799, 256)         0         
                                                                 
 bidirectional_2 (Bidirecti  (None, 9799, 256)         394240    
 onal)                                                           
                                                                 
 dropout_2 (Dropout)         (None, 9799, 256)         0         
                                                                 
 bidirectional_3 (Bidirecti  (None, 9799, 256)         394240    
 onal)                                                           
                                                                 
 dropout_3 (Dropout)         (None, 9799, 256)         0         
                                                                 
 attention_layer (Attention  (None, 256)               65536     
 Layer)                                                          
                                                                 
 dense (Dense)               (None, 5)                 1285      
                                                                 
=================================================================
Total params: 2062597 (7.87 MB)
Trainable params: 2062597 (7.87 MB)
Non-trainable params: 0 (0.00 Byte)
