…
Layer-level Per-Class Recall:  [0.63955174686882, 0.9337016574585635, 0.6772486772486772, 0.09243697478991597, 0.967032967032967, 0.9882352941176471, 0.8596491228070176, 0.3713450292397661]
Layer-level Per-Class F1 Score:  [0.76677467794199, 0.9013333333333332, 0.48030018761726084, 0.14915254237288136, 0.9166666666666667, 0.9921259842519685, 0.8698224852071007, 0.079375]
******************************************************************************************************************************
Model: "sequential"
┏━━━━━━━━━━━━━━━━━━━━━━━━━━━━━━━━━┳━━━━━━━━━━━━━━━━━━━━━━━━┳━━━━━━━━━━━━━━━┓
┃ Layer (type)                    ┃ Output Shape           ┃       Param # ┃
┡━━━━━━━━━━━━━━━━━━━━━━━━━━━━━━━━━╇━━━━━━━━━━━━━━━━━━━━━━━━╇━━━━━━━━━━━━━━━┩
│ bidirectional (Bidirectional)   │ (None, 9799, 512)      │       550,912 │
├─────────────────────────────────┼────────────────────────┼───────────────┤
│ dropout (Dropout)               │ (None, 9799, 512)      │             0 │
├─────────────────────────────────┼────────────────────────┼───────────────┤
│ bidirectional_1 (Bidirectional) │ (None, 9799, 256)      │       656,384 │
├─────────────────────────────────┼────────────────────────┼───────────────┤
│ dropout_1 (Dropout)             │ (None, 9799, 256)      │             0 │
├─────────────────────────────────┼────────────────────────┼───────────────┤
│ bidirectional_2 (Bidirectional) │ (None, 9799, 256)      │       394,240 │
├─────────────────────────────────┼────────────────────────┼───────────────┤
│ dropout_2 (Dropout)             │ (None, 9799, 256)      │             0 │
├─────────────────────────────────┼────────────────────────┼───────────────┤
│ bidirectional_3 (Bidirectional) │ (None, 9799, 256)      │       394,240 │
├─────────────────────────────────┼────────────────────────┼───────────────┤
│ dropout_3 (Dropout)             │ (None, 9799, 256)      │             0 │
├─────────────────────────────────┼────────────────────────┼───────────────┤
│ attention_layer                 │ (None, 256)            │        65,536 │
│ (AttentionLayer)                │                        │               │
├─────────────────────────────────┼────────────────────────┼───────────────┤
│ dense (Dense)                   │ (None, 8)              │         2,056 │
└─────────────────────────────────┴────────────────────────┴───────────────┘
 Total params: 2,063,371 (7.87 MB)
 Trainable params: 2,063,368 (7.87 MB)
 Non-trainable params: 0 (0.00 B)
 Optimizer params: 3 (16.00 B)