…
Layer-level Per-Class Recall:  [0.9737640079103493, 1.0, 0.7566137566137566, 0.5462184873949579, 0.8736263736263736, 0.9921568627450981, 0.8713450292397661, 0.0]
Layer-level Per-Class F1 Score:  [0.9607180020811654, 0.9602122015915119, 0.7114427860696517, 0.6265060240963856, 0.9298245614035088, 0.9863547758284601, 0.9254658385093169, 0]
******************************************************************************************************************************
Model: "sequential"
_________________________________________________________________
Layer (type)                 Output Shape              Param #   
=================================================================
bidirectional (Bidirectional (None, 9799, 512)         550912    
_________________________________________________________________
dropout (Dropout)            (None, 9799, 512)         0         
_________________________________________________________________
bidirectional_1 (Bidirection (None, 9799, 256)         656384    
_________________________________________________________________
dropout_1 (Dropout)          (None, 9799, 256)         0         
_________________________________________________________________
bidirectional_2 (Bidirection (None, 9799, 256)         394240    
_________________________________________________________________
dropout_2 (Dropout)          (None, 9799, 256)         0         
_________________________________________________________________
bidirectional_3 (Bidirection (None, 9799, 256)         394240    
_________________________________________________________________
dropout_3 (Dropout)          (None, 9799, 256)         0         
_________________________________________________________________
attention_layer (AttentionLa (None, 256)               65536     
_________________________________________________________________
dense (Dense)                (None, 8)                 2056      
=================================================================
Total params: 2,063,368
Trainable params: 2,063,368
Non-trainable params: 0