…
Layer-level Per-Class Recall:  [0.8718523401450231, 0.9281767955801105, 0.2962962962962963, 0.6638655462184874, 0.8186813186813187, 0.9372549019607843, 0.8888888888888888, 0.06725146198830409]
Layer-level Per-Class F1 Score:  [0.9086287441604837, 0.8379052369077308, 0.4392156862745097, 0.656964656964657, 0.5786407766990291, 0.8884758364312267, 0.7755102040816326, 0.04006968641114983]
******************************************************************************************************************************
Model: "sequential"
_________________________________________________________________
 Layer (type)                Output Shape              Param #   
=================================================================
 bidirectional (Bidirection  (None, 9865, 512)         550912    
 al)                                                             
                                                                 
 dropout (Dropout)           (None, 9865, 512)         0         
                                                                 
 bidirectional_1 (Bidirecti  (None, 9865, 256)         656384    
 onal)                                                           
                                                                 
 dropout_1 (Dropout)         (None, 9865, 256)         0         
                                                                 
 bidirectional_2 (Bidirecti  (None, 9865, 256)         394240    
 onal)                                                           
                                                                 
 dropout_2 (Dropout)         (None, 9865, 256)         0         
                                                                 
 bidirectional_3 (Bidirecti  (None, 9865, 256)         394240    
 onal)                                                           
                                                                 
 dropout_3 (Dropout)         (None, 9865, 256)         0         
                                                                 
 attention_layer (Attention  (None, 256)               65536     
 Layer)                                                          
                                                                 
 dense (Dense)               (None, 8)                 2056      
                                                                 
=================================================================
Total params: 2063368 (7.87 MB)
Trainable params: 2063368 (7.87 MB)
Non-trainable params: 0 (0.00 Byte)