…
Layer-level Per-Class F1 Score:  [0.706095850861998, 0.3089005235602094, 0.45421245421245426, 0.6932409012131716, 0.31017119838872104, 0.8537005163511187, 0.8672566371681416, 0.05057675244010648]
******************************************************************************************************************************
Model: "sequential"
┏━━━━━━━━━━━━━━━━━━━━━━━━━━━━━━━━━┳━━━━━━━━━━━━━━━━━━━━━━━━┳━━━━━━━━━━━━━━━┓
┃ Layer (type)                    ┃ Output Shape           ┃       Param # ┃
┡━━━━━━━━━━━━━━━━━━━━━━━━━━━━━━━━━╇━━━━━━━━━━━━━━━━━━━━━━━━╇━━━━━━━━━━━━━━━┩
│ bidirectional (Bidirectional)   │ (None, 9865, 512)      │       550,912 │
├─────────────────────────────────┼────────────────────────┼───────────────┤
│ dropout (Dropout)               │ (None, 9865, 512)      │             0 │
├─────────────────────────────────┼────────────────────────┼───────────────┤
│ bidirectional_1 (Bidirectional) │ (None, 9865, 256)      │       656,384 │
├─────────────────────────────────┼────────────────────────┼───────────────┤
│ dropout_1 (Dropout)             │ (None, 9865, 256)      │             0 │
├─────────────────────────────────┼────────────────────────┼───────────────┤
│ bidirectional_2 (Bidirectional) │ (None, 9865, 256)      │       394,240 │
├─────────────────────────────────┼────────────────────────┼───────────────┤
│ dropout_2 (Dropout)             │ (None, 9865, 256)      │             0 │
├─────────────────────────────────┼────────────────────────┼───────────────┤
│ bidirectional_3 (Bidirectional) │ (None, 9865, 256)      │       394,240 │
├─────────────────────────────────┼────────────────────────┼───────────────┤
│ dropout_3 (Dropout)             │ (None, 9865, 256)      │             0 │
├─────────────────────────────────┼────────────────────────┼───────────────┤
│ attention_layer                 │ (None, 256)            │        65,536 │
│ (AttentionLayer)                │                        │               │
├─────────────────────────────────┼────────────────────────┼───────────────┤
│ dense (Dense)                   │ (None, 8)              │         2,056 │
└─────────────────────────────────┴────────────────────────┴───────────────┘
 Total params: 2,063,371 (7.87 MB)
 Trainable params: 2,063,368 (7.87 MB)
 Non-trainable params: 0 (0.00 B)
 Optimizer params: 3 (16.00 B)