…
Layer-level Per-Class Recall:  [0.98022412656559, 0.9337016574585635, 0.5502645502645502, 0.9537815126050421, 0.8186813186813187, 0.9450980392156862, 0.9005847953216374, 0.0]
Layer-level Per-Class F1 Score:  [0.9634573020603862, 0.9467787114845938, 0.7098976109215017, 0.8330275229357798, 0.8816568047337279, 0.9469548133595286, 0.9418960244648319, 0]
******************************************************************************************************************************
Model: "sequential"
_________________________________________________________________
Layer (type)                 Output Shape              Param #   
=================================================================
bidirectional (Bidirectional (None, 9799, 512)         550912    
_________________________________________________________________
dropout (Dropout)            (None, 9799, 512)         0         
_________________________________________________________________
bidirectional_1 (Bidirection (None, 9799, 256)         656384    
_________________________________________________________________
dropout_1 (Dropout)          (None, 9799, 256)         0         
_________________________________________________________________
bidirectional_2 (Bidirection (None, 9799, 256)         394240    
_________________________________________________________________
dropout_2 (Dropout)          (None, 9799, 256)         0         
_________________________________________________________________
bidirectional_3 (Bidirection (None, 9799, 256)         394240    
_________________________________________________________________
dropout_3 (Dropout)          (None, 9799, 256)         0         
_________________________________________________________________
attention_layer (AttentionLa (None, 256)               65536     
_________________________________________________________________
dense (Dense)                (None, 8)                 2056      
=================================================================
Total params: 2,063,368
Trainable params: 2,063,368
Non-trainable params: 0
