…
Layer-level Per-Class Recall:  [0.4025049439683586, 0.9779005524861878, 0.9894179894179894, 0.18067226890756302, 0.9505494505494505, 1.0, 0.8421052631578947, 0.631578947368421]
Layer-level Per-Class F1 Score:  [0.5672085462145844, 0.9567567567567569, 0.6925925925925925, 0.29553264604810997, 0.5616883116883117, 0.9732824427480916, 0.8495575221238938, 0.08923776079322454]
******************************************************************************************************************************
Model: "sequential"
_________________________________________________________________
 Layer (type)                Output Shape              Param #   
=================================================================
 bidirectional (Bidirection  (16, 9865, 512)           550912    
 al)                                                             
                                                                 
 dropout (Dropout)           (16, 9865, 512)           0         
                                                                 
 bidirectional_1 (Bidirecti  (16, 9865, 256)           656384    
 onal)                                                           
                                                                 
 dropout_1 (Dropout)         (16, 9865, 256)           0         
                                                                 
 bidirectional_2 (Bidirecti  (16, 9865, 256)           394240    
 onal)                                                           
                                                                 
 dropout_2 (Dropout)         (16, 9865, 256)           0         
                                                                 
 bidirectional_3 (Bidirecti  (16, 9865, 256)           394240    
 onal)                                                           
                                                                 
 dropout_3 (Dropout)         (16, 9865, 256)           0         
                                                                 
 attention_layer (Attention  (16, 256)                 65536     
 Layer)                                                          
                                                                 
 dense (Dense)               (16, 8)                   2056      
                                                                 
=================================================================
Total params: 2063368 (7.87 MB)
Trainable params: 2063368 (7.87 MB)
Non-trainable params: 0 (0.00 Byte)