…
Layer-level Per-Class Recall:  [0.8288727752142386, 0.994475138121547, 0.8412698412698413, 0.226890756302521, 0.8571428571428571, 0.9921568627450981, 0.7777777777777778, 0.11988304093567251]
Layer-level Per-Class F1 Score:  [0.8844963421496905, 0.949868073878628, 0.6476578411405296, 0.3323076923076923, 0.8547945205479451, 0.9387755102040817, 0.8721311475409836, 0.04921968787515006]
******************************************************************************************************************************
Model: "sequential"
_________________________________________________________________
 Layer (type)                Output Shape              Param #   
=================================================================
 bidirectional (Bidirection  (None, 9881, 512)         550912    
 al)                                                             
                                                                 
 dropout (Dropout)           (None, 9881, 512)         0         
                                                                 
 bidirectional_1 (Bidirecti  (None, 9881, 256)         656384    
 onal)                                                           
                                                                 
 dropout_1 (Dropout)         (None, 9881, 256)         0         
                                                                 
 bidirectional_2 (Bidirecti  (None, 9881, 256)         394240    
 onal)                                                           
                                                                 
 dropout_2 (Dropout)         (None, 9881, 256)         0         
                                                                 
 bidirectional_3 (Bidirecti  (None, 9881, 256)         394240    
 onal)                                                           
                                                                 
 dropout_3 (Dropout)         (None, 9881, 256)         0         
                                                                 
 attention_layer (Attention  (None, 256)               65536     
 Layer)                                                          
                                                                 
 dense (Dense)               (None, 8)                 2056      
                                                                 
=================================================================
Total params: 2063368 (7.87 MB)
Trainable params: 2063368 (7.87 MB)
Non-trainable params: 0 (0.00 Byte)
