…
Layer-level Per-Class Recall:  [0.8326781970649895, 0.9834254143646409, 0.971830985915493, 0.2773109243697479, 0.8681318681318682, 0.9921568627450981, 0.8187134502923976, 0.10526315789473684]
Layer-level Per-Class F1 Score:  [0.8825775987778627, 0.964769647696477, 0.736, 0.4150943396226415, 0.9002849002849004, 0.9601518026565465, 0.8588957055214724, 0.044471896232242125]
******************************************************************************************************************************
Model: "sequential"
_________________________________________________________________
 Layer (type)                Output Shape              Param #   
=================================================================
 bidirectional (Bidirection  (None, 9799, 512)         548864    
 al)                                                             
                                                                 
 dropout (Dropout)           (None, 9799, 512)         0         
                                                                 
 bidirectional_1 (Bidirecti  (None, 9799, 256)         656384    
 onal)                                                           
                                                                 
 dropout_1 (Dropout)         (None, 9799, 256)         0         
                                                                 
 bidirectional_2 (Bidirecti  (None, 9799, 256)         394240    
 onal)                                                           
                                                                 
 dropout_2 (Dropout)         (None, 9799, 256)         0         
                                                                 
 bidirectional_3 (Bidirecti  (None, 9799, 256)         394240    
 onal)                                                           
                                                                 
 dropout_3 (Dropout)         (None, 9799, 256)         0         
                                                                 
 attention_layer (Attention  (None, 256)               65536     
 Layer)                                                          
                                                                 
 dense (Dense)               (None, 8)                 2056      
                                                                 
=================================================================
Total params: 2061320 (7.86 MB)
Trainable params: 2061320 (7.86 MB)
Non-trainable params: 0 (0.00 Byte)