…
Layer-level Per-Class Recall:  [0.6512854317732366, 0.8839779005524862, 0.9788359788359788, 0.07142857142857142, 0.9010989010989011, 0.996078431372549, 0.8888888888888888, 0.32456140350877194]
Layer-level Per-Class F1 Score:  [0.7738095238095237, 0.8839779005524862, 0.6228956228956228, 0.12546125461254612, 0.7663551401869159, 0.9788053949903661, 0.8837209302325582, 0.07400000000000001]
******************************************************************************************************************************
Model: "sequential"
_________________________________________________________________
 Layer (type)                Output Shape              Param #   
=================================================================
 lstm (LSTM)                 (None, 9799, 256)         275456    
                                                                 
 dropout (Dropout)           (None, 9799, 256)         0         
                                                                 
 lstm_1 (LSTM)               (None, 9799, 128)         197120    
                                                                 
 dropout_1 (Dropout)         (None, 9799, 128)         0         
                                                                 
 lstm_2 (LSTM)               (None, 9799, 128)         131584    
                                                                 
 dropout_2 (Dropout)         (None, 9799, 128)         0         
                                                                 
 lstm_3 (LSTM)               (None, 9799, 128)         131584    
                                                                 
 dropout_3 (Dropout)         (None, 9799, 128)         0         
                                                                 
 attention_layer (Attention  (None, 128)               16384     
 Layer)                                                          
                                                                 
 dense (Dense)               (None, 8)                 1032      
                                                                 
=================================================================
Total params: 753160 (2.87 MB)
Trainable params: 753160 (2.87 MB)
Non-trainable params: 0 (0.00 Byte)